…
started":"2025-08-07T13:17:44.634491Z","shell.execute_reply":"2025-08-07T13:17:44.648454Z"}},"outputs":[{"execution_count":21,"output_type":"execute_result","data":{"text/plain":"BartForConditionalGeneration(\n  (model): BartModel(\n    (shared): BartScaledWordEmbedding(50264, 1024, padding_idx=1)\n    (encoder): BartEncoder(\n      (embed_tokens): BartScaledWordEmbedding(50264, 1024, padding_idx=1)\n      (embed_positions): BartLearnedPositionalEmbedding(1026, 1024)\n      (layers): ModuleList(\n        (0-11): 12 x BartEncoderLayer(\n          (self_attn): BartAttention(\n            (k_proj): Linear(in_features=1024, out_features=1024, bias=True)\n            (v_proj): Linear(in_features=1024, out_features=1024, bias=True)\n            (q_proj): Linear(in_features=1024, out_features=1024, bias=True)\n            (out_proj): Linear(in_features=1024, out_features=1024, bias=True)\n          )\n          (self_attn_layer_norm): LayerNorm((1024,), eps=1e-05, elementwise_affine=True)\n          (activation_fn): GELUActivation()\n          (fc1): Linear(in_features=1024, out_features=4096, bias=True)\n          (fc2): Linear(in_features=4096, out_features=1024, bias=True)\n          (final_layer_norm): LayerNorm((1024,), eps=1e-05, elementwise_affine=True)\n        )\n      )\n      (layernorm_embedding): LayerNorm((1024,), eps=1e-05, elementwise_affine=True)\n    )\n    (decoder): BartDecoder(\n      (embed_tokens): BartScaledWordEmbedding(50264, 1024, padding_idx=1)\n      (embed_positions): BartLearnedPositionalEmbedding(1026, 1024)\n      (layers): ModuleList(\n        (0-11): 12 x BartDecoderLayer(\n          (self_attn): BartAttention(\n            (k_proj): Linear(in_features=1024, out_features=1024, bias=True)\n            (v_proj): Linear(in_features=1024, out_features=1024, bias=True)\n            (q_proj): Linear(in_features=1024, out_features=1024, bias=True)\n            (out_proj): Linear(in_features=1024, out_features=1024, bias=True)\n          )\n          (activation_fn): GELUActivation()\n          (self_attn_layer_norm): LayerNorm((1024,), eps=1e-05, elementwise_affine=True)\n          (encoder_attn): BartAttention(\n            (k_proj): Linear(in_features=1024, out_features=1024, bias=True)\n            (v_proj): Linear(in_features=1024, out_features=1024, bias=True)\n            (q_proj): Linear(in_features=1024, out_features=1024, bias=True)\n            (out_proj): Linear(in_features=1024, out_features=1024, bias=True)\n          )\n          (encoder_attn_layer_norm): LayerNorm((1024,), eps=1e-05, elementwise_affine=True)\n          (fc1): Linear(in_features=1024, out_features=4096, bias=True)\n          (fc2): Linear(in_features=4096, out_features=1024, bias=True)\n          (final_layer_norm): LayerNorm((1024,), eps=1e-05, elementwise_affine=True)\n        )\n      )\n      (layernorm_embedding): LayerNorm((1024,), eps=1e-05, elementwise_affine=True)\n    )\n  )\n  (lm_head): Linear(in_features=1024, out_features=50264, bias=False)\n)"},"metadata":{}}],"execution_count":21},{"cell_type":"code","source":"def split_into_chunks(text, tokenizer, max_tokens=512, stride=256):\n    tokens = tokenizer.encode(text, truncation=False)\n    chunks = []\n    start = 0\n    while start < len(tokens): \n        end = min(start + max_tokens, len(tokens))\n        chunk = tokens[start:end]\n 
…
